trained.pth (torch, 845490 bytes, 11 tensors)

encoder.0.weight f4 [16, 1, 3, 3]
00000000: b4a7 223e 7a4c 8bbc c7f0 ecbd e711 5f3e
00000010: 62ac d0bd c062 9dbe c9d1 633e a1f1 093d
00000020: ed58 f1bd 57cf 5cbc 48fd 773d 2fcd 083c
00000030: c22c 493d b6b0 f33d 1c37 a73d 165d 3c3e
00000040: 039d 893e 2c24 593e 8e85 0dbb 5ab1 18be
00000050: 7426 843c aa3b 28bd b4ac a8be 1338 dabd
00000060: 72a7 ec3b cd51 37be 81f1 29bd acec 1ebe
00000070: 06c7 8cbe 07be 62be 258a 46bd 1060 53bd
00000080: c2ff 5ebd f355 533e fa9c c83e ecb4 713e
00000090: f2c0 333c 04f7 c73d 180a c83c 6824 51bd
000000a0: e11e 193e 8621 a43d 68f7 e0ba 7004 773e
000000b0: 0b72 003e 8975 4cbd 4c68 ebbd cca4 263e
000000c0: 6a00 8bbe 52c4 3fbe 30c7 d03e 1cff 60be
000000d0: 1750 b6bd e6f1 af3e 60f3 3cbd b1cd ca3d
000000e0: d021 abbd 7436 5e3d e508 ca3e ac1c a53d
000000f0: db28 42bd 6167 fb3d 02cd a1bc b0e5 593d
00000100: 8a62 3fbd 6e6d 8dbe b311 ba39 00e8 b3bd
00000110: e6f1 d5be 920a 06bd 4d67 553d 601c c4bd
00000120: 0a09 bfbd 90e5 c5bd a995 f7bd b421 a9bd
00000130: 4b53 69bd e71f bbbd 3c7a e9bd 29fa e5bd
00000140: 5427 f5bd 218a a8bd 13f3 05be 2d49 b63c
00000150: d2f7 8f3b f6c8 96bd 7795 023e 937c 4abc
00000160: 4443 a2bc bbff 4e3c 9c24 26bd 2981 6e3d
00000170: df1d 923e 806e 913c 6bfd c63d 1e4a d23e
00000180: 042c 103d 01d5 53bd 6b66 d23d 3d54 f83c
00000190: b13b 213d 804f 78bd d6ef 593e 30b9 c93d
000001a0: 5ea0 f8bd f9b9 253e 11d9 9d3c 786a 73bd
000001b0: 8e9f 073d eff7 0e3d 2eec c43d ac55 0c3d
000001c0: 4af7 71bc 047f 6c3d 81a3 e5bd 4818 93be
000001d0: 3c10 7dbe 8f6b f23c 5ab1 ad3d cc5a ef3d
000001e0: 8ad3 fb3c 1dd6 483e 07a9 003e 5fe8 f6bd
000001f0: 433e f63d 89ef 173e 52e2 563d b534 303d
00000200: a382 2a3d 549a 803c 271e 00be 71a6 56bc
00000210: 33ef c0bd bf08 5fbe 1579 f6bb 9602 12bc
00000220: 3189 b5bd ba16 4ebd 81e6 f33c a232 37be
00000230: c07a 19bd db27 ca3d 1fb0 18bc 6041 a5bc
0.15884286 -0.01700424 -0.11569362 0.21784173 -0.101891294 -0.30739403 0.22247995 0.0336777
-0.11784539 -0.013477168 0.060544282 0.008349701 0.04911495 0.11898939 0.08164808 0.18394884
0.26877603 0.21205205 -0.0021594497 -0.14911404 0.016131617 -0.041072525 -0.32944262 -0.106552266
0.0072221095 -0.17902298 -0.04149008 -0.1551997 -0.27495593 -0.22142802 -0.04847159 -0.051605284
-0.05444313 0.20638256 0.39182264 0.23604172 0.010971295 0.09763911 0.024418876 -0.05106011
0.14953186 0.080142066 -0.0017163577 0.24122787 0.12543504 -0.049916778 -0.114945024 0.16273803
-0.27148753 -0.18727234 0.40776968 -0.21972317 -0.08901995 0.3436424 -0.046130538 0.09902514
-0.083560586 0.05425115 0.3945991 0.08062109 -0.047402244 0.12275577 -0.019751076 0.053197563
-0.046724834 -0.2762255 0.00035489872 -0.08784485 -0.41786116 -0.032724924 0.05210047 -0.095757246
-0.09327896 -0.09662926 -0.12089092 -0.082583815 -0.0569642 -0.09136944 -0.114002675 -0.11229355
-0.11970392 -0.08229471 -0.13081007 0.02225169 0.004393556 -0.07362549 0.12752329 -0.012358802
-0.019807465 0.012634213 -0.040562257 0.058228645 0.28538415 0.017752886 0.097163044 0.41072172
0.035198227 -0.05171681 0.10273441 0.030313605 0.039363567 -0.060622692 0.21282896 0.09849775
-0.121399626 0.16184224 0.019268544 -0.05942771 0.033111148 0.034904417 0.0961536 0.03426139
-0.014768431 0.05773832 -0.112128265 -0.28729463 -0.24713224 0.029592304 0.08481093 0.1168724
0.030740518 0.19612928 0.12564479 -0.1205604 0.12023594 0.14837469 0.05246193 0.043019015
0.04162849 0.01569859 -0.12511502 -0.013101206 -0.09420624 -0.2178068 -0.0075217583 -0.008911749
-0.08864058 -0.050314642 0.029772999 -0.17890409 -0.03747058 0.09870883 -0.009319334 -0.020172775

encoder.0.bias f4 [16]
00000000: 0ea9 a5bd af69 c3be bfe3 37be aee4 cbbd
00000010: 66f5 ed3d 11cf 45be 754a 0c3e d86a 293e
00000020: 3430 fcbe 758e 033e 1194 35be 31ef 8e3e
00000030: 32cc 153e e84f e5be 3c4d 653e e224 483e
-0.08088885 -0.38166568 -0.17957972 -0.099557266 0.11619072 -0.19317271 0.13700278 0.16544664
-0.49255526 0.12847312 -0.17732264 0.27916864 0.14628676 -0.44787526 0.22392744 0.1954532

encoder.2.weight f4 [32, 16, 3, 3]
00000000: 6bec 4a3d beed 81bc 9b25 e83c 7184 943d
00000010: 45bf d1bd 9f6d 1a3e d524 7ebc f0ac cf3d
00000020: aaf5 dbbc 3ff0 bfbb c4e3 e6bc 4fdf 68bd
00000030: f0ed 19bc 328c c63c d0ff 3abd f4e5 903d
00000040: a91f cebb 9158 843d 3271 8c3a 435d d43b
00000050: 0563 febb f990 31bd c4e0 43bd 49ec f43c
00000060: 243b 9bb9 7e1b 4d3e 447d a1bd dd73 ecbb
00000070: b5b6 8e3b 1e7f c1bc 4ac0 c93c 45e6 9c3d
00000080: 7d97 fc3d 63a3 5a3d 12ca 823d 304b 063e
00000090: a649 75ba dacb 4a3d ac4e 0e3d 2052 71bc
000000a0: d44e 89bd 3f69 0bbc 6eec d6bb 8601 36bd
000000b0: 979c 703d b7c3 263c b307 c43d 8b9f bfbb
000000c0: 58c7 8c3d a4e5 b73d fcb8 eebc b169 db3c
000000d0: 132d c83d b376 b93d 32dd 233d 1b1f b9bd
000000e0: bbc4 09bc 36e7 583d 9cea d53d 1c94 143d
000000f0: 7236 f13b c4e2 34be 3353 143a 9ee9 a9bb
00000100: 432f 41bc 9742 a63d 1829 0fbd 9449 89bd
00000110: a5d1 403e dcd2 8e3d 9680 a73d 74ae cfbb
00000120: d314 9dbc c4d6 00be d58b f63c c8da 0f3d
00000130: 1eab e6bd ea89 743e 1811 e4bc d7e7 323e
00000140: d05f 32be 05b1 85bd 27bc 0cbc b756 06bd
00000150: 85df e3bb 3648 4fbd fd00 78bc b271 a13c
00000160: 1545 2e3e bec5 853d 6cc4 78bb 01bb 3a3d
00000170: 889a 2bbd 95ab 3a3c 0ee9 b13d e9f9 02be
00000180: ac43 a6bb 61e8 c6bd fad4 c53b c8a0 4abc
00000190: e4af 043d e651 38ba a364 d8bc fd04 403d
000001a0: 6ed5 f43b a224 423d dd8d b0bd f217 173c
000001b0: 580a 3fbd 8bc2 0abc 8574 773d 5834 38bc
000001c0: eac4 1bbc 4d24 2c3c dd83 9ebd 8195 74bc
000001d0: a3b2 92bd c02f 86bc c90d f13d 4702 993d
000001e0: 0032 e23c 1cd3 973d b52e cfbd 7b0c adbd
000001f0: 2c71 1cbe af49 f8bc ebc5 b03d 252b 82bd
00000200: 6f03 a03d 50a1 95bd e47b 803d a072 f33d
00000210: 3ba5 0abd 3ea9 083d 2466 c7bd 2690 db3b
00000220: fcfd abbd e27c e6bc 56d5 f03b c430 93bd
00000230: b8e3 a03d d93f 17bd 90da 7f3d 8d2e 82bd
00000240: 5282 893c 58fa 033d 3191 9f3c c6bf 18bd
00000250: 7ab8 aa3d 7ec2 a0bc 86e4 04bd eef8 8fbc
00000260: 2825 b03c 1233 043d f1b1 08bd 524f 043c
00000270: 1594 543d 7748 d53d 11ac 763d 5f7e cb3d
00000280: a32c 843d db0e 903d 7449 543d 57e6 c73c
00000290: 22a5 ddbc e723 3bbc d538 3ebc 99b0 1ebd
000002a0: 2b86 ce3b 6e6c 8ebd addd 5abd 9bc2 5c3d
000002b0: 6aae 453d 2202 b83c fdc6 073d db54 7d3d
000002c0: 4fb5 353d e37b fa3c 2622 023d b27e 013d
000002d0: 0f28 64bd 9c26 113c 677b cdbc 9402 983d
000002e0: a0e7 75bb 379f c63d f538 e23c 5f76 933d
000002f0: 67f1 983d e409 043d 47c4 133d f200 fe3c
00000300: 413d 533d 7174 14bb a331 32bd 0ae7 3e3c
00000310: 9650 c33d 001b 4fbb 5988 19bc 6d48 04bd
00000320: c738 3a3d d4dd 733d 3ced 9a3d 2dc8 653d
00000330: 0a9a a53c d27a 343d b781 093b fa56 eebc
00000340: 0c1e bcbc fcab 22bc 75ae 2dbd 46d4 d5bb
00000350: 0b18 8dbc 3cc3 1dbd 2df6 893d 8006 163d
00000360: 2636 9cbc 8850 a5bc a4c0 0abc 14b9 81bc
00000370: 8c41 e13c 71f0 22be 0ada ab3b cbc9 9ebd
00000380: a7d4 b1bd 14c0 3bbd 7bb7 7f3d 8010 42bd
00000390: cfd5 53bd a567 463d f31e d4bc 4462 193d
000003a0: 6b48 843d db9b 05bd 7a59 c23c b4d6 1d3d
000003b0: 7a7e fa3d 99b1 c33d 6de0 8f3d 26d1 223e
000003c0: 5f04 da3d e94e 3b3c cd23 a83d 2973 b03c
000003d0: 2841 d93c f3f2 a3bd 85ca 113d 4c86 f1bc
000003e0: 0b35 58bd 6f20 423d 96f2 36bd 14ff d3bc
000003f0: 8b1e cabb 636f 343b 3a43 09bd c793 ce3c
0.049541872 -0.015860435 0.028338244 0.07251824 -0.1024156 0.1508088 -0.015511711 0.10140407
-0.02685054 -0.005857497 -0.028184779 -0.05685359 -0.009395108 0.024236772 -0.045654118 0.0707511
-0.0062903953 0.06462205 0.0010714887 0.006480844 -0.007763269 -0.043351147 -0.047821775 0.029897826
-0.00029607967 0.20030019 -0.07885221 -0.0072159604 0.0043552765 -0.023620185 0.024627823 0.07661108
0.123335816 0.053378474 0.06386198 0.1311462 -0.0009356983 0.049510814 0.034742996 -0.014729053
-0.067044884 -0.008508979 -0.0065589463 -0.044435047 0.058743086 0.010178498 0.09571781 -0.0058478764
0.06873959 0.08979347 -0.029140942 0.026783796 0.09774222 0.09055843 0.04000587 -0.09039136
-0.008408721 0.052954875 0.10445139 0.03627406 0.0073612267 -0.17664629 0.00056581496 -0.00518532
-0.011791053 0.0811817 -0.0349513 -0.06703487 0.18829973 0.06973812 0.08178823 -0.006337935
-0.019174969 -0.12581927 0.030095974 0.035120755 -0.11263107 0.23880735 -0.027840182 0.17471252
-0.17419362 -0.065279044 -0.008589781 -0.03279754 -0.006954136 -0.050605975 -0.015136954 0.019707534
0.1701854 0.06531857 -0.0037958873 0.045588497 -0.04189542 0.011393447 0.0868703 -0.12790646
-0.005073985 -0.097122915 0.0060373517 -0.012367435 0.032394305 -0.0007031247 -0.026415175 0.046879757
0.007471732 0.047398217 -0.08620808 0.009222018 -0.046640724 -0.008469234 0.060413856 -0.0112429485
-0.009507397 0.010506702 -0.07739995 -0.014928223 -0.071629785 -0.01638019 0.117702074 0.074711375
0.027611732 0.07413313 -0.101163305 -0.08449646 -0.15277547 -0.030308573 0.086315 -0.063558854
0.07813155 -0.073061585 0.0627363 0.11887097 -0.033848982 0.033364527 -0.09736279 0.0067005334
-0.08398053 -0.02813572 0.0073496504 -0.07187036 0.07855934 -0.036926124 0.062464297 -0.06356535
0.016785774 0.03222117 0.019478412 -0.037292264 0.08335967 -0.019623991 -0.0324445 -0.017574754
0.021502092 0.032275267 -0.033372823 0.008075552 0.051899035 0.10414212 0.06022269 0.09936213
0.06453826 0.070340835 0.051827863 0.024401827 -0.02705628 -0.011422134 -0.0116102295 -0.038742635
0.006302615 -0.06954275 -0.053434063 0.053896528 0.048262037 0.022461955 0.033148754 0.061848503
0.044362362 0.030576652 0.031770848 0.031614967 -0.055702265 0.008859303 -0.025083257 0.07422367
-0.0037522092 0.096983366 0.02761505 0.07200312 0.07467919 0.032235995 0.036075857 0.03100631
0.05157209 -0.0022652412 -0.04350437 0.011651764 0.09536855 -0.0031601787 -0.009370887 -0.032295633
0.045464303 0.059537724 0.0756478 0.056099106 0.020215053 0.044062443 0.0020981857 -0.029094208
-0.022963546 -0.0099287 -0.042402703 -0.006525549 -0.017223379 -0.038516268 0.067364074 0.036627293
-0.019068789 -0.020180002 -0.008468781 -0.015835322 0.027497075 -0.15912034 0.005244498 -0.07753333
-0.08683138 -0.045837477 0.06243084 -0.047379017 -0.051717576 0.048438687 -0.025893664 0.03744723
0.06459125 -0.03261934 0.023724306 0.038534835 0.12231155 0.095553584 0.07025228 0.15900096
0.10645365 0.011432388 0.082099535 0.021539288 0.026520327 -0.08005323 0.03559353 -0.029482983
-0.05278496 0.047394212 -0.04466494 -0.025878467 -0.006168192 0.0027532212 -0.033511378 0.02521695

encoder.2.bias f4 [32]
00000000: 8947 ea3d 29f4 8dbd 48c5 e93d 49f0 6d3d
00000010: be48 c1bc 8619 c73d 61f4 fcbc 335b 0c3d
00000020: 97e8 00bd d1a7 02bd 5cc6 63bc 0f83 383d
00000030: 54dd 023d c5f6 52bc 2d49 b3bd 697e 2dbd
00000040: b342 a9bd defa 133d ad0a b43b 7882 083e
00000050: afa6 84bd e006 dbbd cf05 46bc d10f 963d
00000060: 3364 1ebe 4000 923c 36db 55bd 7ef2 273c
00000070: f895 1b3d 2b81 9ebd 1910 f5bc 8e93 4b3d
0.114394255 -0.069313355 0.114145815 0.058090482 -0.023594256 0.09721665 -0.030878248 0.03426666
-0.031471815 -0.031898323 -0.013902273 0.045046862 0.031949356 -0.012876217 -0.087541915 -0.042356882
-0.08264675 0.036127917 0.0054944367 0.1333102 -0.06477105 -0.10694671 -0.012086346 0.073272355
-0.1546791 0.017822385 -0.05221101 0.010250686 0.03798482 -0.077394806 -0.029914903 0.049701266

encoder.4.weight f4 [64, 32, 7, 7]
00000000: a871 0c3d cfae 00bb 8939 0e3c afd2 d9bd
00000010: 4041 04be bba1 70bc 81aa bebd 4015 ed3c
00000020: 7bd6 57bd 21c6 b53b bb53 2bbd d447 fb3c
00000030: 1e17 8abc 1b82 06bd ca62 9a3d d68b 67bc
00000040: 1fd3 a9bc f527 133b cebe d0bd 0da4 febc
00000050: 5b87 9fbd 8c8b c53b 39c8 053d 752f a3bc
00000060: cfb7 c33c 427d 843c 48b5 39bc cb72 6d3d
00000070: 27a3 4ebc 1d5d 79bd 771f 99bd a72f f6bc
00000080: 21ec ac3d 682b 8cbd 86f3 093e 9ea3 68bb
00000090: 0da5 06bc 6b61 f2bc 99a0 e03b ed66 e23c
000000a0: 6218 bf3d 60b4 b5bc d1e3 3bbd c264 243d
000000b0: 8b73 c6bd b5c6 903d be02 c8bd c0e4 4dbd
000000c0: 3935 a6bc f0a4 83bd aefa 56bd 9b68 44bd
000000d0: 14ed b5bc eaaa 79bb b549 563c d7bb ac3d
000000e0: 45aa 213d 047b 163c f05c 813c b787 e0bc
000000f0: 44dc f7bc d6fc dabb b36c c03b 2055 d1bd
00000100: 40b7 7bbd d0f8 173d 228c 163d 84c5 283d
00000110: d0cc af3d 664b 033d eb6f 13bd 22f8 78bc
00000120: 4fc2 573d cf38 b23c d6c7 173c 1eb0 14bc
00000130: 06e5 82bd 79a3 d43b c38e 243d b10f 9d3d
00000140: e4ac 313d 3f3e cbbd a3dd a3bd b43a 50be
00000150: 4fb1 0b3d 08b4 e03c 5c8d 113d d212 8fba
00000160: 6894 9e3c 4518 26bd 2543 1abc 50ea 363d
00000170: 9961 363d b1ef 9e3d 6e5e 093d 4156 1c3e
00000180: 531b 0d3e 3745 3e3e 9365 793d 1051 4c3d
00000190: e0b0 fd3d af6c fa3c 4293 bfbc 80f7 2338
000001a0: c8ee 1dbc b7fe b6bb f873 d63c 16e8 533c
000001b0: aeaf 0f3d 7fed 623c 4ad1 02bd 01df d2bd
000001c0: 1127 583c 536f a3bc bf28 0abe f6c7 f03b
000001d0: 605b 06be 518a b6bc dba6 28be caec 413d
000001e0: 9dc4 06bc 4166 43bc e5d0 993d 1e5d 3c3d
000001f0: 3864 fdbc e969 2ebc 06d2 843b 51df a93c
00000200: 6423 983c b6fa 583d e55e e93d 41f6 8bbc
00000210: c641 803d db80 423c f860 c53c 6027 633d
00000220: beeb 1f3b 82a9 c73c 5547 d23c 448a 1e3d
00000230: fab8 9d3d bb21 babc 37df 083d 9499 643c
00000240: 9baf 71bd af05 16bb 533f abbd 930b 21bd
00000250: 15c1 87bc f2c0 41bb 1db3 94bc 130a 5d3d
00000260: 38e8 54bd d747 39be 0ca7 c8bc b8f7 ca3c
00000270: ef81 e2ba 7ce4 433d d76f 033d 1239 223c
00000280: 7aeb 18bc 960a 273e 56de 0e3d 0d92 233d
00000290: 3cc4 54bd c795 f03c d413 f0bc 4db9 3e3d
000002a0: 9baa a2bc bdd3 a7bc 77ce 59bc e2dd abbc
000002b0: a36a 753b 2ea2 203d d0c6 943c 5048 09bd
000002c0: 2775 913c 33b6 84bd 19f7 623c 73e6 fa3d
000002d0: ab3a bd3d afba 973e cb2c 323c 9afe 87bc
000002e0: ef27 10bd 2ad1 b2bc 9880 21bd 5520 e0bc
000002f0: b295 49bd d3ca abbc 1ce4 753b 28d9 acbd
00000300: 2d9b b3bc 56f9 1cbe 524a 57bd fad1 7bbe
00000310: d52a 8a3c 399f a9b7 d679 70bd f3fe 0b3d
00000320: 36fa 703d 1be0 8dbc 89c1 a43d 026c 25be
00000330: 656d 6f3b 7d8f b53d d6fd ff3d eb1d 453d
00000340: 52fa cf3d d5b4 71be 66b1 0bbe 3817 a7bc
00000350: 8e48 163e 13f6 873c c412 dc3d 4495 333c
00000360: 703e f73d ba35 583e 6084 d93c b609 d03d
00000370: e2e4 33bc a8e3 8a3d 85af 543c 183b 87bc
00000380: 67c1 393b f0b9 df3d 4828 143d a570 c63c
00000390: 9e5f bebd f113 1ebc f07d c8bd fee6 93ba
000003a0: 6529 d43c 8427 2c3c a506 2dbd 06bd 093e
000003b0: 63f3 6fbd 014a 8b3e 2bc0 123d 87aa 8a3d
000003c0: 8b77 75ba 0075 6cbd 7abd 9a3d ce21 353c
000003d0: 166a 0f3e dd83 84bd a4a8 18bd a87b 0fbd
000003e0: 9104 70bd 080d b33b 1cc8 adbd b2e2 45be
000003f0: 10ea a2bb a705 97ba 6941 a2bc e43e 2dbd
0.03428808 -0.0019635444 0.00868071 -0.10635888 -0.12915516 -0.014686997 -0.09309865 0.028940797
-0.05269478 0.0055473004 -0.0418279 0.030673899 -0.016856726 -0.032838922 0.07538374 -0.014132461
-0.020730553 0.0022454236 -0.10192643 -0.031084085 -0.07789489 0.006028598 0.03266165 -0.01992009
0.023891358 0.016173009 -0.011334725 0.057970803 -0.012612141 -0.060879815 -0.074767046 -0.03005202
0.084434755 -0.068442166 0.13471803 -0.0035497914 -0.008218062 -0.029587468 0.006855082 0.02763697
0.093308225 -0.022180736 -0.04587156 0.040135153 -0.09690007 0.0706915 -0.09766148 -0.05026698
-0.02028905 -0.06427944 -0.05248516 -0.047951322 -0.022207774 -0.0038096257 0.013079097 0.08434265
0.039469022 0.009184603 0.015791386 -0.027408464 -0.030256398 -0.0066829724 0.005872333 -0.102213144
-0.061454058 0.03710252 0.036754735 0.04120399 0.08583987 0.032054327 -0.035995405 -0.015195878
0.05267554 0.021755604 0.009263953 -0.009075193 -0.06391339 0.006489214 0.04017521 0.076690085
0.043377772 -0.09923982 -0.08001258 -0.20334893 0.03410464 0.027429596 0.0355352 -0.0010915643
0.019357875 -0.04055049 -0.009415423 0.04465705 0.04452667 0.07760561 0.03353732 0.15267278
0.13779955 0.18581091 0.060887884 0.049881995 0.12387252 0.030569403 -0.023385648 3.909273e-05
-0.009639449 -0.0055845636 0.026178345 0.012933752 0.03507965 0.013850569 -0.031937875 -0.10296441
0.013192908 -0.019950544 -0.13492106 0.007348056 -0.13120794 -0.022282751 -0.164699 0.04734496
-0.008225587 -0.011926235 0.075105466 0.04598724 -0.030931577 -0.010645368 0.004053357 0.020736368
0.018571563 0.05297347 0.11395053 -0.017085196 0.06262545 0.011871542 0.02409409 0.055457473
0.0024401988 0.02437282 0.02566878 0.03870608 0.07701297 -0.022721162 0.033416 0.0139526315
-0.05900536 -0.0022891571 -0.083616875 -0.03931768 -0.01657156 -0.0029564467 -0.018151814 0.053964686
-0.051979274 -0.18093811 -0.024493717 0.024776325 -0.0017281155 0.04782532 0.03208908 0.009901302
-0.009333486 0.16312632 0.034880005 0.039934207 -0.051944956 0.029368294 -0.02930633 0.046563435
-0.019856742 -0.020486707 -0.013293854 -0.020979825 0.0037447594 0.039217167 0.018161207 -0.03351623
0.017756058 -0.06480064 0.013852858 0.12250986 0.09239706 0.29634616 0.010874937 -0.016600896
-0.035194334 -0.021828253 -0.039429277 -0.027359167 -0.049215026 -0.020970738 0.0037519997 -0.08439857
-0.02192458 -0.15329489 -0.05256111 -0.24591818 0.016866127 -2.0220514e-05 -0.05870994 0.034178685
0.05883237 -0.017318776 0.080447264 -0.16154483 0.003653371 0.08865259 0.12499587 0.048124235
0.10155167 -0.23604138 -0.13641891 -0.020396814 0.14676115 0.01659683 0.10745767 0.010960881
0.12072456 0.21114245 0.02655238 0.10158102 -0.010979863 0.06781703 0.0129813 -0.01650767
0.0028344037 0.10924137 0.036171228 0.024223635 -0.09295581 -0.009648309 -0.09789646 -0.0011284051
0.025898645 0.010507468 -0.042242665 0.13451013 -0.05858172 0.27204898 0.035827797 0.06770807
-0.00093638216 -0.057728767 0.07555671 0.011055423 0.14005312 -0.064704634 -0.037270203 -0.035030037
-0.058598105 0.0054642 -0.084854335 -0.19324759 -0.00497175 -0.001152207 -0.01980658 -0.042296305

encoder.4.bias f4 [64]
00000000: 0e38 97bc 0651 6ebc 1bd2 aabc 2114 91bc
00000010: 1411 1f3d b366 563d 68ba 9c3b f18c 7a3c
00000020: 69be 87bc e83d 3bbb c82f f63b 101c 2e3d
00000030: a847 05bd 3588 febb ab71 f33c 0018 c538
00000040: 5c9d 51bc 7452 ebbc b4bf 6d3c 879e 8c3c
00000050: 1319 edbc 1c84 35bd 8200 053d cefb 993b
00000060: 8896 9d3c 13f3 eabc f888 c3bc 461b 203c
00000070: 17ff 593c 287b bc3c 9969 9cbc 734d 3ebb
00000080: b7d4 b73d cd1d 01bd 91d0 12bd 744c 06bb
00000090: 4a0d 293d 4dd8 1d3c 25ff a2b9 7181 28bb
000000a0: 6c24 51bd 379d 02bc 76c9 ea3c 195e 003d
000000b0: 118b 9cbc d2ed e7bb f80e 90bb ad57 9c3c
000000c0: b23a 2abc 65f7 59bc 6727 74bb 9892 9f3c
000000d0: 3f2b 67bc ef20 323d 9900 9d3c b882 513d
000000e0: 26c1 aa3c 6407 b83c 3c68 143c 5fba 913c
000000f0: f3fd 84bb 7999 d1bc 3680 9f39 d91a 03bb
-0.018459346 -0.014545685 -0.02085214 -0.017709794 0.038834646 0.052344035 0.0047829635 0.015292392
-0.016570287 -0.0028570835 0.00751302 0.04250723 -0.03253904 -0.007767702 0.029717287 9.3981624e-05
-0.012793865 -0.02872584 0.014511038 0.017165435 -0.02894262 -0.044315442 0.032471187 0.004699207
0.019236818 -0.02868036 -0.023869023 0.0097721275 0.013305447 0.023007944 -0.019093322 -0.0029037863
0.08976119 -0.03152256 -0.035843436 -0.0020492347 0.04127244 0.00963409 -0.00031089145 -0.0025711919
-0.051060125 -0.007972053 0.028660517 0.03133974 -0.01910928 -0.007077911 -0.0043963157 0.019084776
-0.010389971 -0.013303612 -0.003725493 0.019479081 -0.014109432 0.04348844 0.019165324 0.051150054
0.020844053 0.022464462 0.009058055 0.017789064 -0.0040585934 -0.025585877 0.00030422368 -0.0020005016

decoder.0.weight f4 [64, 32, 7, 7]
00000000: bd0e 393d 6d4b 643d ec3a 04be d528 67bd
00000010: 5a5f 2f3e b87d 8c3b 1510 c93d 0ef9 1e3d
00000020: ba29 1a3c bba3 123d 1ae0 553d 838c bf3d
00000030: a455 623c a81c cf3d 4b61 ec3c 8bfd 963c
00000040: 2bcc c13d e52c d1bc 86d0 a83d 4483 cdbc
00000050: 7f3a 173e ba0b 263c cf12 923d 6d81 a73c
00000060: 6811 03be d004 8fbd be7b 31bd b659 a73d
00000070: 51d1 03bd 2efb 033d 5627 923d 2f5d 793d
00000080: 1a49 6fbd 7913 f93b 1111 013d 9a20 cf3d
00000090: 7d14 c03d 828c 4dbd 7919 ba3c 1780 20bd
000000a0: 236c 6ebc 1213 533d 5ffa 0abd 3f90 c2bd
000000b0: 5748 af3d 1716 733b 58a5 ee3d e1d3 e93d
000000c0: 955a 38be c688 703d c2e1 a73b e740 f93c
000000d0: 823a 213d 5f03 6b3c b226 003d 4c77 cebd
000000e0: dadb dfbc 31fb e03d fc68 563d 4ca1 fb3c
000000f0: 5bc7 853d 2f08 b83d 899a e83d 28d3 dabc
00000100: 4c8d 093e 8c24 2b3c b85b 473d a8c1 cd3c
00000110: 3827 b13c 3d4d da3c 4b7c 8ebd 99fb e53c
00000120: 7cc0 bf3d 6244 e03c 0cad 083d e90b f7bc
00000130: 3658 a33d 0c54 15bd 3981 8c3d 8562 af3d
00000140: c432 3c3d fb52 0e3e c2a8 c43c b118 ad3c
00000150: 0939 17bc 79c8 1a3d 984e 713d 3a21 373d
00000160: abac 823c ec19 4dbb 0aa9 b23d 938d f93d
00000170: c903 af3d 9769 943d 4572 b03d f6f0 adbc
00000180: 0df7 213d fc3d 7b3d 9b5f 6fbd 588b f83c
00000190: 8eed a8bd 2348 83bc e843 e8bc 722e 38bd
000001a0: 52bf c2bd ae1f c93c e645 7a3c e2d8 493d
000001b0: 9cb7 923d 5c16 763d 200c 843d c22f 853c
000001c0: eec8 e8bc 4107 a4bd e0b3 1a3e fcb4 783d
000001d0: a73c ca3d d6f9 b43b 1cc9 8c3c 3267 56bd
000001e0: e2a7 963c a5ac d13d db73 653c 3543 b73d
000001f0: 0189 733c cc78 2bbd 1bb6 643d 4c84 bbbc
00000200: 6596 ea3c 8c03 423c 3539 3e3c 2e91 613d
00000210: f82f 26bd db9f 4c3d aced 073c ef9e 463d
00000220: 7266 a73b 5faf cb3c e7c1 a23d 0bfd 4cbd
00000230: 8a90 07bd e80f ea3b 773f 7cbd ed13 53bb
00000240: edeb 9ebb 488e 0cbc 7467 14bd e060 f8bd
00000250: 0c91 eabd 4a98 f0bd 8961 c3bd 39c7 bdbd
00000260: 49cf 2bbd f48e 13bd b768 3bbd 3486 57bd
00000270: e38d a5bd daf1 07bd f218 5bbd caa6 50bd
00000280: b549 193d 40a2 28be 5d08 90bd c549 b2bc
00000290: 0bd7 43bd 5bac a5bb 402c 28bd fe4b a23c
000002a0: 77c6 1fbe 85f2 98bd 305b 89bd decd 47bd
000002b0: b662 29bd 378c dabc 2801 9ebc c161 9fbd
000002c0: c68c 94bd 6501 78bd 93cd 9bbd 8696 16be
000002d0: d676 92bd e081 4dbe 996f babd 7d12 1fbd
000002e0: bd4e 4dbd 1c44 2cbd f8c2 6cbd 6d4e a3bc
000002f0: 43e7 7bbd 5747 99bd 13fe ae3a d2d8 123d
00000300: 6700 19bc 7a38 a93d a203 083c a718 213e
00000310: e404 2c3d e1c5 2d3d 42dc 683c 442e d03d
00000320: aa7c 043d 58ed 843d 18e0 973c a821 173e
00000330: a32d 35bc e46f 803d 5f4a 463c cf16 9f3d
00000340: 23d3 253d 3203 273d 7668 b13d 1760 573d
00000350: 1ac0 8b3d a6bd 183c fcba 003e ad6f 983d
00000360: a463 93bc 49c1 cd3d 5f04 073d 7b0c 943a
00000370: 717f bb3c 6e3d 283c f674 533d 1f68 2abc
00000380: 127c 6e3d 5efc 563d 6cfe 6a3d 35ce 0e3d
00000390: 1045 b13b 6eb8 21be 61aa 3e3b ec26 5f3d
000003a0: a39a 023c d0fd 9c3b 4391 7f3d aa99 073e
000003b0: 13a7 133d 5b39 0dbd 8b45 ec3c 6356 133e
000003c0: 6bc7 7b3d 42fb 533d db6f a23c b237 4d3d
000003d0: 3159 dd3d 9abd de3c 51fd b7bd 1968 0bbd
000003e0: adca 0abe 1211 40be cd8e 7aba 1783 90bd
000003f0: b7aa 013d 66c3 debb d4a1 babc 7ce7 39bd
0.04518007 0.055735994 -0.12913102 -0.056435425 0.17126217 0.004287448 0.098175205 0.038811736
0.009409362 0.035800677 0.052215673 0.09352972 0.013814364 0.101128876 0.028854987 0.018431446
0.0946277 -0.025534103 0.08242898 -0.025087006 0.14768408 0.010134632 0.07132494 0.020447457
-0.12799609 -0.0698334 -0.0433309 0.08171408 -0.03218204 0.032221965 0.07136409 0.060879882
-0.058419324 0.0076011983 0.031510416 0.1011364 0.09378908 -0.050182827 0.022717224 -0.039184656
-0.014552149 0.05153186 -0.03393018 -0.09500169 0.085587196 0.0037092024 0.116526306 0.11417366
-0.18003304 0.058724187 0.005123348 0.030426456 0.039362438 0.014344065 0.031286903 -0.10081348
-0.027326513 0.10985411 0.052346215 0.03071656 0.06532165 0.08985936 0.113576 -0.026712015
0.13432807 0.010445725 0.048671454 0.025116757 0.021625146 0.026648158 -0.06957301 0.028074073
0.09362885 0.027376357 0.033368155 -0.030157046 0.07975809 -0.036457106 0.06860585 0.08563713
0.04594685 0.13898842 0.024006251 0.021129938 -0.009229907 0.037788842 0.058912843 0.04470942
0.015951475 -0.0031295968 0.08723648 0.12185206 0.08545644 0.07246702 0.08615545 -0.021233063
0.039542247 0.06133841 -0.058440786 0.030339882 -0.08248435 -0.016025608 -0.028352693 -0.04496617
-0.09509148 0.024551239 0.015275454 0.0492791 0.07163927 0.060079917 0.06447625 0.016258124
-0.028416123 -0.08009196 0.1510768 0.060719475 0.0987485 0.005522947 0.01718574 -0.05234451
0.0183906 0.102380075 0.014004673 0.089483656 0.014864207 -0.041863248 0.05583773 -0.022890233
0.028636167 0.011841666 0.011610319 0.055070095 -0.04057309 0.049957138 0.0082964115 0.048491415
0.005108648 0.024863897 0.0794714 -0.050046008 -0.033096828 0.0071430095 -0.061583962 -0.0032207922
-0.004849902 -0.008578844 -0.036231473 -0.121278524 -0.11453447 -0.11747797 -0.09540088 -0.09266514
-0.04194573 -0.036025003 -0.04575416 -0.05261822 -0.08083703 -0.033189632 -0.053490587 -0.050940312
0.037423808 -0.16468143 -0.07032845 -0.021763692 -0.047812503 -0.0050559468 -0.041057825 0.019811627
-0.15603052 -0.07468132 -0.06706846 -0.048780315 -0.041353904 -0.026678188 -0.01928766 -0.07782317
-0.07253413 -0.060548205 -0.076075695 -0.14705858 -0.071515724 -0.20069075 -0.09103317 -0.03883599
-0.05012392 -0.04205714 -0.057803124 -0.019934857 -0.061499845 -0.0748431 0.0013350867 0.035851307
-0.009338475 0.08262725 0.008301647 0.1573206 0.04199685 0.04242504 0.01421267 0.101650745
0.03234545 0.06490582 0.018539473 0.14758933 -0.011058244 0.062713414 0.012102692 0.07768022
0.04048456 0.04077453 0.086625025 0.052581873 0.0682375 0.009322559 0.12571329 0.074431755
-0.017991848 0.10046632 0.032963153 0.0011295223 0.022887917 0.010268552 0.051625215 -0.010400801
0.05822379 0.05248677 0.05737154 0.034864623 0.005409844 -0.1579301 0.0029093253 0.05448048
0.007971439 0.004790999 0.06239439 0.13242212 0.036048006 -0.034478527 0.028841754 0.14388423
0.061469477 0.05175329 0.019828727 0.050101943 0.108080275 0.027190018 -0.08983863 -0.034034822
-0.13553877 -0.18756512 -0.0009558022 -0.070562534 0.031656947 -0.0067981957 -0.022782244 -0.045386776

decoder.0.bias f4 [32]
00000000: d4d2 88bd bbbd 9ebd 6bd8 af3d 8211 6f3d
00000010: 721d 963c 05e6 233d 4054 113e 9e48 4a3d
00000020: 70fc d83d 5c7a 5c3e 2f17 b2bd faf1 29be
00000030: 43a0 68bd f081 12be 0b6c 0f3e 95a5 2cbe
00000040: ffad a63c 64bd fdbe 9533 d4bd 242f 55bc
00000050: a874 613d 460c 223e 3d7f 9abd 69ff f3bc
00000060: b8dd fdbd b48a d4be 4d07 8f3d 5d8a 053d
00000070: 4422 1c3d 1e25 ed3d 96e6 adbd 01ac bbbd
-0.06680837 -0.07751032 0.085862 0.058366306 0.018324587 0.040014286 0.14192295 0.04938566
0.10595024 0.21531051 -0.08695828 -0.16596213 -0.056793462 -0.1430738 0.14006059 -0.1686004
0.02034664 -0.49558556 -0.10361401 -0.0130117275 0.055042893 0.15824994 -0.075438 -0.029784875
-0.12395805 -0.41512072 0.069838144 0.032602657 0.038118616 0.11579345 -0.084912464 -0.091636665

decoder.2.weight f4 [32, 16, 3, 3]
00000000: d903 d83b 04dd 423d e1e3 c23c 8415 b5bc
00000010: bd01 123b 363a 0f3e 2065 a23c 3990 703c
00000020: 9525 843e 78f7 c43c 4c2d c43c 8188 363d
00000030: 8b5a 9c3c bd73 c03c 1a19 073e e11b 533d
00000040: 0f51 263d 22af 603c 3223 4a3d 74a8 1f3d
00000050: f035 24bc 1e5d 62bd cbcf 103d 0307 02bd
00000060: f272 593c 0423 0c3e 8555 883d df09 46bd
00000070: f6cb 2f3d cc76 403d 1262 ca3d d55d 13bd
00000080: bbc9 1f3e f509 8d3b d4eb 8b3c d127 103d
00000090: 47fe 263b bb2d e93d 2ee8 fcbc 7785 3ebd
000000a0: 14c1 173c 230d 46bd 2640 573c a45a 8d3d
000000b0: dd54 523e 0641 833c 299e aa3c 0ac3 53bd
000000c0: 33ac 203d 6ae2 363c 950f 2c3c 7efd 453c
000000d0: 1e0e a8bb 3034 75bd 98f1 253d 2e25 ce3d
000000e0: 1ccc 1cbd ef2d de3c 0d5e b93d 9801 83bd
000000f0: 57e7 e93d 6c02 0a3e 54a1 a5bd 68fa 993c
00000100: 4393 bf3c 1529 943c 6b49 fdbc b0b8 1b37
00000110: 68a0 54bd a7fb 6cbc 1352 443d ce81 503b
00000120: 7d34 f4bc 0a71 e03d 9a1c b33d fc2d 54bd
00000130: 7edf 423e c603 d4b9 e30e 97bd e30b 0a3e
00000140: ca6d 8bbc 9e0a 633c 12eb 9b3b 0e37 893d
00000150: 8d0b dfbc 5406 583d 668f 573c 4a65 a23c
00000160: 746d 883d 27d6 253d 11df ca3c 4703 8e3c
00000170: fa48 06bd 4086 4dbd 15dc 853c 0c38 053d
00000180: 16ac bbbb 22ee 883d 7965 9b3e a98c 333c
00000190: fff0 a33b 400a fd3c a668 393d ea59 a03d
000001a0: 005c d6bb 6dbd e63c d696 673b cd81 87bc
000001b0: 6cfe 75bc bb3d bd3c c323 ea3d 6bfc c7bb
000001c0: f2a5 213d cc93 303e 5037 5ebc dedf ab3c
000001d0: bda6 e73d 617c 5f3c e274 013c 47b8 5a3c
000001e0: 9612 933c 6659 e53b 74d4 0bbd 90fc 5d3b
000001f0: d445 aabd 9709 403c 4499 b5bd 6c3a 973d
00000200: 4f0f 52bd 1884 703c 6c65 8c3d d35b a43b
00000210: 1a44 a63c 9619 ab3d 5e39 813d 0113 263d
00000220: 9bfb 003b 2cbf 943c 8f55 82bd 4176 023b
00000230: de59 8fbd 98b2 29bd 8eac 913b 161c 0b3e
00000240: 7c73 bb3b 1d15 d7bc 7b38 48bd 6761 203d
00000250: 36af bc3d eb1e 093e 335c eb3b c720 ae3c
00000260: bbaf b93d c8e7 04bc 024e 913b 2e8b 633d
00000270: 053c b33c 25e1 e53d 0f74 9b3d 7399 04bc
00000280: b11d 063e afda a2bb 19cf 893c 4c40 af3c
00000290: 048d ed3b a706 dd3c 1a39 dd3d 3ce7 28bd
000002a0: 27a6 39bc 888c 423d 01fe aa3d 5d41 d23c
000002b0: 9dc6 3f3d 65af c7bc 7a5f 143c 61ee cd3c
000002c0: db8e 153e fe53 833b b114 a53d efac cd3b
000002d0: e2d0 eabb 401f 75bc 04aa e63c de6a b2bc
000002e0: a6c1 233c a8d1 eabc 0ec8 acbd 982c 64bd
000002f0: 3c2c 3ebd 7e2f a93c 4e98 59bb f0a1 283d
00000300: f074 1fbc 3f95 793d 913e 283d c2f5 a8bc
00000310: 6e4b 3d3d 5051 8b3c 5f1a 813d 2def 9abd
00000320: 5b23 fcbc a2b7 9cbc 86c2 6e3c ab03 cfbd
00000330: 7528 2d3d 2d27 44bd 4645 c1bd 6a4a 2b3c
00000340: 2e91 41bc 8ec6 063d d355 333d 5df5 553d
00000350: 8c8f f83d da59 c23c 93ff 0abc dd44 ca3c
00000360: 0696 c3ba 4a6e 45bc 86ae aebd 525d 03bc
00000370: 7694 d13b 0333 a1bd cd28 5cbc 40f0 a1bc
00000380: b334 c2bc 7f74 033d d137 903c b036 9f3d
00000390: dd1a 5d3d 3114 0f3e d97d ba3d be1a e3bb
000003a0: 4a59 663c 5c50 633b a35f bd3c 959a ebbc
000003b0: 540e 323c e1a9 983c 3d0a 6c3d aa9c 2fba
000003c0: 30da 273d 670a 9d3d 94a6 a63d 7ddf f33a
000003d0: f71b 09bd 522f 073c c596 0d3d 8c3f f33d
000003e0: 851c 4fbd c0f7 c5bb a264 3fbd b3be cf3c
000003f0: c1a6 603c da78 133d df45 b53a db42 bb3d
0.0065922556 0.04757406 0.023790302 -0.022104986 0.0022278868 0.1398705 0.01982361 0.014682823
0.25809923 0.024043784 0.02394738 0.044563774 0.019086143 0.023492688 0.13193169 0.05154026
0.040604647 0.01371363 0.04934997 0.03897901 -0.010022625 -0.055264585 0.035354417 -0.03174497
0.013272034 0.13685232 0.066569366 -0.048349258 0.04291912 0.046988294 0.09881987 -0.035978157
0.15604298 0.0043041655 0.017080225 0.035194222 0.002548115 0.113856755 -0.03087243 -0.046514
0.009262342 -0.048352372 0.013137853 0.06902054 0.20540185 0.016022217 0.02082737 -0.051699676
0.039226722 0.01116238 0.010501762 0.012084363 -0.005128636 -0.059864223 0.040513605 0.10065685
-0.03828059 0.027121512 0.09051142 -0.06396788 0.11421078 0.13477486 -0.080874115 0.01879616
0.02338565 0.018085996 -0.030918797 9.281721e-06 -0.051910788 -0.0144642955 0.047929835 0.003181565
-0.029810185 0.109590605 0.0874569 -0.051801667 0.19030568 -0.00040438602 -0.07375886 0.13481097
-0.017020125 0.013857512 0.004758247 0.06699954 -0.027227188 0.05274041 0.013156747 0.019823689
0.066615015 0.040487435 0.02476457 0.017335547 -0.03278444 -0.05017686 0.016340295 0.032524154
-0.0057273014 0.06686045 0.30350855 0.010958829 0.005003094 0.030888677 0.045265816 0.0782965
-0.006541729 0.028166497 0.0035337708 -0.016541386 -0.015014272 0.023100724 0.11432602 -0.0061030886
0.0394649 0.1724388 -0.013562992 0.020980772 0.113111 0.013640494 0.007901402 0.013349599
0.017953198 0.0069991825 -0.034138158 0.0033872463 -0.083141 0.011721036 -0.08867124 0.0738419
-0.05128413 0.014679931 0.06855282 0.005015829 0.020296145 0.083544895 0.0630977 0.040545467
0.0019681219 0.018157564 -0.06363975 0.001990691 -0.06999563 -0.041430086 0.004445619 0.13584933
0.005720554 -0.026255185 -0.04888199 0.03915539 0.09213106 0.133907 0.007182622 0.021255864
0.09066721 -0.008111902 0.004434348 0.055552654 0.021879205 0.112245835 0.07590496 -0.008093226
0.13097264 -0.004969917 0.016822385 0.021392964 0.0072494764 0.026980711 0.10801907 -0.041236147
-0.011331118 0.047497302 0.08349229 0.025665933 0.04682027 -0.024375627 0.0090559665 0.025138082
0.14605276 0.0040078154 0.08060587 0.006276719 -0.007166014 -0.014961064 0.028157242 -0.021779474
0.0099949 -0.028664425 -0.08436595 -0.05570659 -0.046428904 0.020652529 -0.0033202353 0.04117006
-0.00973247 0.060933348 0.041075293 -0.020624999 0.046214513 0.017006546 0.06303858 -0.075651504
-0.030778578 -0.019130532 0.014572745 -0.101081215 0.04227491 -0.047888923 -0.09437041 0.010454753
-0.011814399 0.0329042 0.04378302 0.05223595 0.121367544 0.023724485 -0.008483785 0.02469104
-0.001492203 -0.012050221 -0.085293815 -0.008017855 0.0063958718 -0.07871058 -0.013437462 -0.01976788
-0.02370677 0.03209352 0.01760474 0.07774103 0.053980697 0.13972546 0.09106035 -0.006930678
0.014059374 0.003468535 0.023116892 -0.028760234 0.010867674 0.018635692 0.05762695 -0.0006699065
0.040979564 0.07668 0.08137241 0.0018606033 -0.033473935 0.008251028 0.034567613 0.11877355
-0.050564308 -0.006041497 -0.04672683 0.025359487 0.013711632 0.036003925 0.0013830027 0.09143611

decoder.2.bias f4 [16]
00000000: 8af9 233d 512e db3a f5b3 13bd cda7 06bd
00000010: f743 0c3c 62f0 003d 47e1 3d3d 7914 b7bc
00000020: 39cf f0bd 4da2 72bd 1b25 813c e61c aa3c
00000030: 528c 00be a60a e03c 7c81 2d3c 1c57 18bb
0.0400329 0.0016722177 -0.036060292 -0.03287487 0.008561126 0.031479247 0.04635742 -0.02234863
-0.117582746 -0.059236813 0.015764764 0.020765733 -0.12553528 0.027348828 0.0105899535 -0.002324528

decoder.4.weight f4 [16, 1, 3, 3]
00000000: 0802 21be f23f babe 2025 89be 0276 f33c
00000010: 47bf efbd 332b a1be 3762 0f3d 64ab 863e
00000020: 8ccd 313e 12da 583e bb04 693e 5e25 4ebe
00000030: d896 26be a7ee ebbd 3772 74be 063e f33d
00000040: 75d4 7f3d ecf5 493e 8944 0c3b aa99 f13a
00000050: 5d73 0bbc 20a2 453e 93c9 b13e 9e2a 723e
00000060: fc61 8cbd 07a1 743e f1df 453e 3e95 17bd
00000070: 5ea8 d8bd 6484 94bd b8bd 01be 37e1 23be
00000080: 6d0a c4bd 10d9 30be 7132 54be 6476 3ebd
00000090: 1931 9e3d 7c96 fb3d 159f 553d 9bf0 103d
000000a0: d8af 7d3d aee2 63bd edf4 1dbe a7dc 4dbe
000000b0: 74e2 8ebe 2f99 e53d 9baa bdbd 8227 f6bc
000000c0: 5982 b13e f211 983e d9fa a63e 76e2 a8bd
000000d0: f883 223e 1dbf 1e3e 904e ac3d 8122 a73d
000000e0: cf70 0d3e c1c8 b33c 6392 8e3e 2ebc be3e
000000f0: 1f5f ecbc 883f 603e 3f3a 833e 4a9b 34be
00000100: f8ee f3bd b950 ca3b e96b f7bd 5cf7 bfbe
00000110: dffd 403e 3873 7cbe 0bfb 9dbc 0bd3 80bd
00000120: 66ff 78bd c2ec 913c 470e c53d 1c27 c2bd
00000130: 35bf c13d 4626 6c3e 458c 69bd ea30 b53d
00000140: e6b2 3e3e f2c4 b23d 06a9 9c3c 6e84 9fbb
00000150: c733 27bd 0059 3bbe 5d3a 56be ac8a 0a3e
00000160: 60ec 3ebe 2fa7 58bd ec3a 5d3d 3443 313e
00000170: eb11 62be c042 f2bd d572 d3bd 866e 543e
00000180: 5b48 07bc bebf 95be 4a30 abbe 13f3 79bd
00000190: ed3d 2ebd 0f23 71bd 1fe7 fc3d 4a38 bfbd
000001a0: 0ca8 033e 6177 5dbe abfd 81be 55f5 1b3e
000001b0: e4a6 fa3d 52f5 4a3e e653 e1b8 67c6 693e
000001c0: d14c a53e 5a4d af3c c185 093e 4d3d 3c3e
000001d0: 1ab8 16bd 46d1 e53d 087c 453e 5b8a 1f3d
000001e0: 6205 3ebe 2eec 173e 7abb b2bc d73b 793e
000001f0: a0e8 0a3d a3ef 1b3e d473 0d3e 4278 85bc
00000200: 9ce3 0d3e 7c1a 87be a2ce 223e 8770 7abe
00000210: 6738 073d a178 eabb 63da a13c 37d3 a0bc
00000220: a243 1cbe d189 653e b68e aebd ccd0 523c
00000230: 330c 98be b99a c4bd 8744 cbbd a02e 373d
-0.15723431 -0.3637691 -0.26786137 0.029719356 -0.11706405 -0.3147827 0.035005774 0.26302636
0.17363566 0.21176937 0.22755711 -0.20131442 -0.1626848 -0.11520129 -0.23871695 0.118770644
0.062458474 0.19722718 0.0021403155 0.0018432636 -0.0085113915 0.19300127 0.347241 0.2364907
-0.068546265 0.23889552 0.19323708 -0.037007563 -0.105789885 -0.07251814 -0.12670028 -0.16003881
-0.09572301 -0.17270303 -0.20722367 -0.046499625 0.077242084 0.12284562 0.052153666 0.03538571
0.061935276 -0.0556361 -0.15425463 -0.20103703 -0.27907145 0.11210858 -0.09261056 -0.030048136
0.3466976 0.2970119 0.32613257 -0.08246319 0.15870655 0.15502591 0.08413422 0.08160878
0.13812564 0.021946313 0.2784606 0.37252945 -0.028853951 0.21899235 0.25630376 -0.17637363
-0.11910814 0.0061741737 -0.12081129 -0.37493408 0.18846844 -0.24653327 -0.019284746 -0.06290253
-0.060790442 0.01781309 0.09621864 -0.09480116 0.09460298 0.23061475 -0.057018537 0.0884722
0.18622932 0.087289706 0.019123565 -0.004868082 -0.040820863 -0.1829567 -0.20920701 0.13529462
-0.18644857 -0.052893814 0.05401127 0.17310792 -0.22077148 -0.11829138 -0.10324637 0.20745286
-0.008256997 -0.2924785 -0.3343528 -0.06102283 -0.042539526 -0.058871325 0.1234877 -0.09336908
0.12857074 -0.2162757 -0.25388846 0.15230305 0.12238863 0.19820145 -0.00010744463 0.2282959
0.3228517 0.021399189 0.1342993 0.1838276 -0.036796667 0.11221556 0.19285595 0.038950305
-0.18556741 0.14836189 -0.021817911 0.24339233 0.033913255 0.15228133 0.13813716 -0.016292695
0.13856357 -0.26387393 0.15899137 -0.24456988 0.033012774 -0.0071554934 0.019757455 -0.019631965
-0.15260175 0.22415854 -0.08523314 0.012867164 -0.29696807 -0.095998235 -0.0992518 0.0447222
